ch3/data/weights/b2.npy (npy, 528 bytes, 1 tensors)

array f4 [100]
00000000: bd06 71bc 11c4 93bd b911 ccba 61d9 f93d
00000010: b8a2 ed3d 7461 f7bb 0e57 273d 5e00 aebd
00000020: 6668 ed3c 279d a33c f973 4a3e 8fcb 323d
00000030: e980 85bd fa11 56bd 0468 393c b2da f93c
00000040: e84f 263d f06a 8e3d 954d 9fbd 24c9 8d3d
00000050: 5ece bfbd 1376 603d 9670 1dbd c6ec ad3c
00000060: bf60 1b3d aee3 e5bc c2f6 94bc d0b4 8c3d
00000070: b463 5e3d 4e1c 8a3d 094b 803d 2511 bfbc
00000080: 952e 82bc d969 983c a6ac 963c 8775 80bc
00000090: bd01 98bd 8b9f 83bc 2f51 b9bc 0012 25bc
000000a0: b7ef 313d 362c f6bd 1394 e53c a77b 9bbd
000000b0: 1fd1 aebb 45fe b6bd 539e 94bc 4273 073d
000000c0: 317f 94bc 847a 9dbd 5072 debc 9a93 1dbd
000000d0: c0b8 59bd ba65 b0bc a946 8d3d 7528 c73c
000000e0: f6c4 5abb 14f0 053c 2939 203d a895 efbc
000000f0: a724 933d 60cc 69bb b501 b83c 0559 233d
00000100: 229a 49bd 040e c93c 19ac 703d ff30 ae3d
00000110: 2d70 f9ba 1363 f9bc 39bb 82bd b0a3 403d
00000120: a7df f5bd 9a63 123d 6edb 2fbd d781 063d
00000130: 821f 09bd 86de 0bbe 7777 a1ba 8ed6 7d3a
00000140: c505 3c3d 0e42 cebc 7ee6 a9bc 244c a43c
00000150: 3f25 2e3c 7fe3 9b3c 2987 2bbc 85a9 6c3d
00000160: c008 423d d1b2 32bd f497 983d 2ffe 4f3d
00000170: 0b2b 883d 2576 263d e7c6 2dbb f401 bd3b
00000180: b2ae c5bd b92d 52bd ca32 b43c 5087 32bd
-0.014711079 -0.07215131 -0.0015569247 0.12199665 0.11603302 -0.007549459 0.040854506 -0.08496164
0.028980445 0.019972397 0.19770803 0.04365116 -0.06518728 -0.052263238 0.011316303 0.03049979
0.04060355 0.069539905 -0.077784695 0.0692313 -0.09365533 0.054800104 -0.03843745 0.021231066
0.03793406 -0.028062668 -0.01818407 0.06870425 0.054294303 0.0674368 0.06264312 -0.023323605
-0.015891353 0.01860516 0.018392872 -0.015681041 -0.074222066 -0.016067287 -0.02262172 -0.010075092
0.0434415 -0.12020151 0.028024709 -0.07591944 -0.005334988 -0.08935217 -0.018141901 0.033068903
-0.018127056 -0.076893836 -0.027154118 -0.038470842 -0.053154707 -0.021532882 0.06898243 0.024311284
-0.0033381558 0.008174915 0.039117012 -0.029246166 0.07184725 -0.0035674796 0.022461751 0.039879818
-0.049219258 0.024542816 0.058757875 0.08505439 -0.0019030623 -0.03044275 -0.06383366 0.047031105
-0.12005549 0.03573952 -0.042933874 0.03283867 -0.033477314 -0.13659105 -0.0012318928 0.0009683155
0.04590394 -0.025177982 -0.02073979 0.020055838 0.010628997 0.019029377 -0.010469236 0.057778854
0.047371626 -0.043627564 0.07450858 0.050779518 0.06648835 0.040640015 -0.002651626 0.005768055
-0.09652461 -0.051313136 0.021996874 -0.043586075
