ch3/data/weights/W1.npy (npy, 156928 bytes, 1 tensors)

array (column-major) f4 [784, 50]
-0.007412489 -0.01029745 -0.01309184 -0.010008393 0.02207348 0.034282602 0.018167838 -0.010159649
-0.025638213 0.030650541 -0.00014020845 0.03786047 -0.009063206 -0.029139955 -0.04947677 0.023097532
-0.024775539 0.009312417 -0.0077897166 -0.012808532 -0.005860691 0.049604766 0.00044579638 -0.030147891
0.036183223 -0.012485467 -0.031171603 0.02225558 -0.0047967113 0.011460233 0.052952416 0.0062975115
0.06250686 0.016460437 0.0105440235 0.016188644 -0.035460014 -0.018320678 -0.06884579 -0.018566933
0.0023714285 0.051197562 -0.04311258 0.010503134 0.016402105 -0.017812837 0.044695217 0.00061211403
0.050393876 0.0015452162 -0.090028495 -0.059386346 -0.053465925 0.019997152 0.017593686 -0.010903915
0.016827213 0.009068879 0.0045330864 -0.027490666 0.034602158 -0.014938529 -0.0024444722 0.034916252
-0.013024305 -0.01463143 0.027246527 0.003672532 -0.03520595 -0.03029765 0.057143126 0.0150542
-0.0090009365 -0.009279733 0.037810065 -0.019053496 -0.0723939 -0.036118507 -0.053639255 -0.023862034
0.008766478 -0.005478272 7.052202e-05 0.014598256 0.06752646 0.02374454 0.016760452 -0.05927584
-0.045334883 -0.023382334 0.04212437 0.07256263 0.03563602 0.07408485 0.024371486 0.0608572
0.054009736 0.049722504 0.013723302 0.059245348 0.038987573 0.016531466 0.00037185638 -0.08095476
-0.03503031 -0.0681988 -0.03692271 0.024618207 0.011414937 0.016400667 -0.019037612 0.016480947
-0.02037702 -0.036636904 0.023838747 -0.07564132 0.019740162 0.019766659 -0.02247952 -0.032564048
0.061357606 0.06420409 -0.011861554 0.11052905 0.08031878 0.06779535 0.1483135 0.194432
0.08414217 0.096053906 0.075430945 -0.025467224 -0.09292348 -0.03659909 -0.06728333 -0.04876198
-0.03779918 0.0056832316 -0.026794713 -0.061101865 0.024999527 0.0637623 -0.012927217 0.043324646
-0.01537605 0.06934759 -0.016827954 0.025844956 -0.0136527065 -0.015744701 -0.02416628 0.075633205
0.06790624 0.1252048 0.13970293 0.09381362 0.10500411 0.048032176 0.08218363 0.047740366
-0.01336578 0.0067971637 -0.04233516 -0.096891575 -0.07541963 0.025720263 0.018960264 -0.048713017
0.03301534 -0.030184316 -0.021380669 0.019648146 -0.04504954 0.0031044495 -0.036723472 -0.034183078
-0.07475463 -0.007273554 -0.04343421 0.037203107 0.12877667 0.19528787 0.18283685 0.2285973
0.2210783 0.22813909 0.1971188 0.08901563 0.04666017 0.010904942 -0.11579504 -0.09646511
0.0020209518 -0.035254743 0.02914811 0.076815605 -0.034313694 0.046307363 0.018400127 0.040546454
0.008942576 -0.041492447 -0.07798605 -0.07770873 -0.07266475 -0.085094914 -0.010778726 0.06288379
0.17296393 0.2384496 0.3161679 0.38012865 0.24265411 0.154376 0.1315818 0.11006554
0.09354265 -0.042237215 -0.07036757 -0.018474206 0.019344939 0.015058935 0.014611651 0.002615316
0.008959849 0.0048007513 0.006220026 -0.026210463 -0.045945987 -0.00401786 -0.0463106 -0.089155845
-0.08514119 0.015967146 0.013086723 0.13307577 0.15897453 0.2355681 0.32650992 0.26888308
0.13378397 0.102101564 0.0153206345 0.004837212 0.025739053 0.07181422 -0.049604014 0.013081378
0.045335233 0.0068897964 0.015886245 -0.063021354 0.022295574 -0.035350326 -0.0018290628 -0.04413813
00000000: 77e4 f2bb a3b6 28bc 287f 56bc 3efa 23bc
00000010: 71d3 b43c ea6b 0c3d b8d4 943c a874 26bc
00000020: 3b07 d2bc d816 fb3c eb04 13b9 9513 1b3d
00000030: d77d 14bc eab6 eebc 27a8 4abd 0937 bd3c
00000040: 12f6 cabc 1c93 183c e140 ffbb e1da 51bc
00000050: 0a0b c0bb 5e2e 4b3d c7b9 e939 b6f8 f6bc
00000060: dc34 143d d88f 4cbc 975b ffbc 5651 b63c
00000070: bb2d 9dbb b3c3 3b3c a2e4 583d 5b5b ce3b
00000080: 9903 803d 0ad8 863c d7c0 2c3c 0c9e 843c
00000090: 853e 11bd 3f15 96bc 06ff 8cbd ae19 98bc
000000a0: f869 1b3b 89b4 513d d196 30bd 5615 2c3c
000000b0: b55d 863c 3aec 91bc 5512 373d 4776 203a
000000c0: cf69 4e3d da88 ca3a dc60 b8bd 193f 73bd
000000d0: 16ff 5abd 11d1 a33c a220 903c 56a6 32bc
000000e0: 39d9 893c a395 143c 498a 943b 1b34 e1bc
000000f0: feba 0d3d bbc0 74bc 7033 20bb 5804 0f3d
00000100: e563 55bc aab8 6fbc 1c34 df3c ddae 703b
00000110: 1d34 10bd c732 f8bc e90e 6a3d e4a5 763c
00000120: aa78 13bc 050a 18bc bade 1a3d 1416 9cbc
00000130: 4143 94bd 00f1 13bd d6b4 5bbd 507a c3bc
00000140: 46a1 0f3c 1483 b3bb 39e5 9338 862d 6f3c
00000150: 504b 8a3d e983 c23c 374d 893c 39cb 72bd
00000160: 12b1 39bd 4f8c bfbc 9a8a 2c3d b79b 943d
00000170: 13f7 113d ccb9 973d b6a6 c73c 6645 793d
00000180: 5039 5d3d d3a9 4b3d b3d7 603c 40ab 723d
00000190: 6fb1 1f3d ff6c 873c b8f5 c239 9ccb a5bd
000001a0: f17b 0fbd d0ab 8bbd 443c 17bd 1fac c93c
000001b0: b705 3b3c b15a 863c c4f4 9bbc 0d03 873c
000001c0: b5ed a6bc 9410 16bd 7a49 c33c d6e9 9abd
000001d0: 1fb6 a13c b0ed a13c f826 b8bc e161 05bd
000001e0: 1d52 7b3d 6f7d 833d f756 42bc 0e5d e23d
000001f0: 2c7e a43d 4ad8 8a3d 7fdf 173e 2f19 473e
00000200: bb52 ac3d e9b7 c43d 8a7b 9a3d a4a0 d0bc
00000210: aa4e bebd ede8 15bd d8cb 89bd a4ba 47bd
00000220: 50d3 1abd 673a ba3b 9680 dbbc f345 7abd
00000230: cfcb cc3c cf95 823d aecc 53bc 2f75 313d
00000240: d4eb 7bbc 1c06 8e3d c7da 89bc cdb8 d33c
00000250: 9aaf 5fbc 08fb 80bc 5df8 c5bc 95e5 9a3d
00000260: 6d12 8b3d b035 003e 490e 0f3e 5b21 c03d
00000270: 650c d73d 63bd 443d e44f a83d 678b 433d
00000280: 25fc 5abc beba de3b a267 2dbd 176f c6bd
00000290: 9b75 9abd 4db3 d23c 8e52 9b3c 4d87 47bd
000002a0: 183b 073d 1945 f7bc 8326 afbc 26f5 a03c
000002b0: de85 38bd 0574 4b3b 5a6b 16bd 8e03 0cbd
000002c0: f518 99bd fe56 eebb 12e8 31bd 4962 183d
000002d0: 08de 033e 8bf9 473e 9539 3b3e 6915 6a3e
000002e0: 5a62 623e 4b9d 693e 83d9 493e d44d b63d
000002f0: bc1e 3f3d a4aa 323c f325 edbd 808f c5bd
00000300: f271 043b 4767 10bd 04c8 ee3c 8051 9d3d
00000310: 848c 0cbd caac 3d3d ddbb 963c 0a14 263d
00000320: e283 123c fcf3 29bd 26b7 9fbd c125 9fbd
00000330: 42d1 94bd 3e46 aebd 4199 30bc 37c9 803d
00000340: 751d 313e 222c 743e c2e0 a13e 39a0 c23e
00000350: 527a 783e be14 1e3e 61bd 063e 0b6a e13d
00000360: 4a93 bf3d ee00 2dbd df1c 90bd 3857 97bc
00000370: 4779 9e3c c0b9 763c b565 6f3c b965 2b3b
00000380: 55cc 123c 9f4f 9d3b 5cd1 cb3b 53b7 d6bc
00000390: dc31 3cbd 41a8 83bb 2fb0 3dbd 5797 b6bd
000003a0: 815e aebd 88cd 823c b269 563c 0445 083e
000003b0: 38ca 223e c438 713e 4f2c a73e 0bab 893e
000003c0: aafe 083e a01a d13d 6603 7b3c 7a81 9e3b
000003d0: b5da d23c 5513 933d 942d 4bbd 4753 563c
000003e0: 70b1 393d cdc3 e13b df23 823c 5711 81bd
000003f0: 35a5 b63c 81cb 10bd 2abd efba 2fca 34bd
