ch3/data/weights/W2.npy (npy, 20128 bytes, 1 tensors)

array (column-major) f4 [50, 100]
0	0xbddb0390	-0.10694039
1	0x3e9925ad	0.29911557
2	0x3d86b090	0.065766454
3	0x3dc044be	0.093881115
4	0x3d44ae43	0.04801775
5	0xbeb20b96	-0.34774464
6	0xbe7c9a80	-0.24668312
7	0xbead4a3b	-0.33845696
8	0xbd359bdb	-0.04433809
9	0x3e28c2e3	0.16480593
10	0xbe73e363	-0.2381721
11	0xbdc41fcf	-0.095763795
12	0xbe1fe9a2	-0.15616468
13	0x3e94c51d	0.29056635
14	0x3dc01fcd	0.093810655
15	0x3e0e0f5b	0.13873045
16	0xbe0994e2	-0.134357
17	0xbe965e8a	-0.29369003
18	0x3ee2af2f	0.4427428
19	0xbdd132c7	-0.10214763
20	0xbda5c759	-0.08094663
21	0x3e873ffe	0.2641601
22	0xbb87ad57	-0.0041405368
23	0x3bdfdc44	0.0068316776
24	0xbe11f712	-0.14254406
25	0xbe238e0d	-0.15972157
26	0x3eaa13c7	0.33218214
27	0xbc620707	-0.013795621
28	0x3e20f814	0.15719634
29	0xbdaea843	-0.08528187
30	0x3e940ee9	0.28917626
31	0xbdc0ed7c	-0.094202965
32	0xbeaf290a	-0.34210998
33	0x3c57f1d8	0.013180219
34	0xbea879df	-0.3290548
35	0x3e6d024b	0.23145406
36	0x3c9f3ed7	0.019439144
37	0xbe10be68	-0.14135134
38	0xbe832761	-0.2561598
39	0x3e8b699a	0.27229005
40	0xbe385608	-0.18001568
41	0x3e9766f2	0.2957073
42	0xbe06f01f	-0.13177536
43	0xbe60a4ef	-0.21937917
44	0x3e9d8ac5	0.30769935
45	0xbe50366a	-0.20333257
46	0x3e3819ba	0.17978564
47	0xbe3c5b51	-0.1839421
48	0x3dccd555	0.10001627
49	0xbcb5ea99	-0.022206591
50	0x3c825add	0.015912468
51	0xbd081428	-0.033222347
52	0x3f220f45	0.6330455
53	0x3e20217c	0.15637773
54	0xbe74c2e5	-0.23902471
55	0xbd3fe49f	-0.04684889
56	0x3c5e2a6b	0.013559918
57	0xbee90fde	-0.45519918
58	0xbe822f91	-0.25426915
59	0xbd505d6e	-0.05087035
60	0xbeb0ad94	-0.3450743
61	0x3ebf3170	0.37342405
62	0x3e3ba2e7	0.18323861
63	0xbe7f1e90	-0.24914002
64	0xbdf52069	-0.11969072
65	0xbda153a7	-0.078772835
66	0xbd63e62f	-0.055639442
67	0x3ea5a955	0.32355753
68	0xbe982b13	-0.29720363
69	0x3e965c34	0.2936722
70	0x3e43d444	0.19123942
71	0xbddb57c7	-0.107101016
72	0xbda25c8e	-0.0792781
73	0x3e07ea4e	0.13272974
74	0x3d696981	0.056985382
75	0xbea6b66e	-0.32561058
76	0x3df7f643	0.121075176
77	0xbe8e2f0f	-0.27770278
78	0x3e94eccf	0.2908692
79	0x3c027370	0.007962093
80	0x3e9fb621	0.3119364
81	0x3c928f00	0.017890453
82	0xbdde205d	-0.108460166
83	0xbe16cdb3	-0.14726906
84	0xbd1602c6	-0.03662374
85	0xbd56967f	-0.052389618
86	0x3c300f4e	0.010745836
87	0x3e05dff5	0.13073714
88	0x3ecf620c	0.4050449
89	0xbf38beef	-0.7216634
90	0xbd1b94a7	-0.037983563
91	0x3c947582	0.018122438
92	0x3e499bb6	0.19688305
93	0x3e8e6eff	0.27819058
94	0xbe4a807d	-0.19775577
95	0x3e5252c7	0.2053939
96	0x3eab9aed	0.33516636
97	0xbddfbedc	-0.109250754
98	0x3db82c7d	0.089928605
99	0xbd511bae	-0.051051788
100	0xbee31242	-0.44349867
101	0xbdb6513f	-0.08902215
102	0x3cbe7dfe	0.023253437
103	0xbda8a504	-0.08234599
104	0xbda7bfc6	-0.08190875
105	0xbcc75f6d	-0.024337495
106	0x3e81a23c	0.25319088
107	0x3ee24431	0.4419265
108	0x3edb8974	0.42878306
109	0xbe8a2cf7	-0.2698743
110	0x3f055cd2	0.5209476
111	0x3da03160	0.078219175
112	0x3eb11697	0.34587547
113	0xbe518a23	-0.20462851
114	0x3f215797	0.63024276
115	0xbe59e65b	-0.2127928
116	0x3eb83e5c	0.35985076
117	0xbed0e678	-0.40800834
118	0xbe84f90b	-0.25971255
119	0x3e0713f0	0.131912
120	0xbe414c38	-0.18876731
121	0xbe8614d9	-0.2618778
122	0x3e914a31	0.28376916
123	0xbce4982d	-0.027904594
124	0x3e0ed727	0.13949262
125	0x3ed93304	0.42421734
126	0xbea339ac	-0.31879938
127	0x3eaa0cb4	0.33212817
128	0xbde8b493	-0.11362567
129	0xbe5e9bf1	-0.21739174
130	0xbed89fec	-0.4230951
131	0xbc5c61af	-0.013451024
132	0x3e9142ae	0.28371185
133	0x3ee82737	0.4534242
134	0xbda11a6a	-0.07866366
135	0xbe89376d	-0.268001
136	0xbdb2edd8	-0.08736771
137	0x3e47f97e	0.19528767
138	0xbe733d7e	-0.23753926
139	0x3ec267e8	0.379699
140	0xbe93f795	-0.28899828
141	0xbdf1f864	-0.11814955
142	0xbe91a93a	-0.28449422
143	0xbeb45c1f	-0.35226533
144	0x3e89602b	0.26831183
145	0x3dc938b9	0.09825272
146	0xbeefcf95	-0.4683806
147	0x3e80ec3c	0.25180233
148	0xbd1eae86	-0.038740657
149	0x3bfeec41	0.0077796285
150	0xbe16d5f4	-0.14730054
151	0x3ea4d4ca	0.32193595
152	0xbdfabeac	-0.12243399
153	0x3e903cbf	0.28171346
154	0x3e98b305	0.2982408
155	0x3e3fac62	0.18718103
156	0x3ec6c1f4	0.3881985
157	0xbe10273b	-0.14077465
158	0xbec4ecab	-0.38461813
159	0xbc035542	-0.0080159325
160	0x3e15af22	0.14617589
161	0xbeb22977	-0.3479726
162	0x3e58cebf	0.21172617
163	0x3e258da1	0.16167308
164	0x3e2a59f5	0.16635878
165	0xbd7d71a0	-0.06187594
166	0x3eb7a7a6	0.35870093
167	0xbe44ac27	-0.19206296
168	0xbe239f48	-0.1597873
169	0xbdfc7e6e	-0.12328802
170	0x3e480e91	0.19536807
171	0xbdfa7ed6	-0.12231223
172	0xbf007c51	-0.5018969
173	0x3d6cfab3	0.057856273
174	0x3c951ff0	0.018203706
175	0x3e59cfe9	0.21270718
176	0xbe90005d	-0.28125277
177	0x3e42c6b0	0.19021106
178	0x3ef1848d	0.4717144
179	0x3aa475e6	0.0012547344
180	0xbe43a8f1	-0.19107415
181	0x3e9e3151	0.30897
182	0xbe004479	-0.1252612
183	0x3ee55d3b	0.44797692
184	0xbedb9b18	-0.42891765
185	0x3ddb9e69	0.10723574
186	0xbea49610	-0.3214574
187	0xbef683b1	-0.48147348
188	0xbcac43c8	-0.021028414
189	0xbd885488	-0.06656748
190	0xbe5bc67b	-0.21462433
191	0x3eb9d975	0.3629872
192	0xbdb50b09	-0.088399954
193	0xbd4ac26c	-0.04950182
194	0x3ed4f24e	0.41591114
195	0xbe9ad738	-0.30242324
196	0x3f0e86f7	0.5567469
197	0x3ec05b51	0.3756967
198	0xbf08088d	-0.5313805
199	0x3ebed27c	0.37269962
200	0x3de338a6	0.11094789
201	0x3e0d6e3a	0.1381158
202	0xbd8f12e5	-0.06986026
203	0xbc84678a	-0.016162653
204	0x3e22f192	0.15912464
205	0x3ebe3237	0.37147686
206	0xbc516787	-0.0127810305
207	0xbdb60c29	-0.08889038
208	0x3ecd12d3	0.40053424
209	0xbe6803a4	-0.22657639
210	0x3dee62a9	0.11639912
211	0xbe2c9344	-0.16853052
212	0x3b405cb5	0.0029352133
213	0x3e130f50	0.1436131
214	0xbd1e7b8e	-0.03869205
215	0xbe6d54b7	-0.23176847
216	0x3da3bdb2	0.07995166
217	0xbe41d81e	-0.18930098
218	0xbe7d6d96	-0.24748835
219	0xbe6154d1	-0.22005011
220	0xbe3a3d16	-0.18187365
221	0xbdcf5740	-0.101240635
222	0xbd465a93	-0.048426222
223	0x3d5a3f95	0.053283293
224	0x3c2344ac	0.009965103
225	0xbe95fe16	-0.29295415
226	0xbe80ec4f	-0.2518029
227	0x3de2991b	0.11064359
228	0x3d81fbd7	0.06346863
229	0xbcd7763d	-0.026301498
230	0x3d93817a	0.0720243
231	0x3de8261b	0.11335393
232	0xbc875d1a	-0.016523886
233	0x3db33c0b	0.08751687
234	0x3e7160a9	0.23572029
235	0xba978f2d	-0.0011563055
236	0x3c9407b7	0.018070085
237	0x3e2087e4	0.15676838
238	0xbe45e2b8	-0.19324768
239	0x3d691c43	0.056911718
240	0xbe0e5a84	-0.13901716
241	0xbd8d4950	-0.06898749
242	0x3ce9dd9c	0.028548054
243	0x3e615971	0.22006775
244	0x3da37a53	0.07982316
245	0xbc87ff42	-0.016601209
246	0x3ccd4fc9	0.025062459
247	0x3e8e202b	0.27758917
248	0xbe2095de	-0.1568217
249	0xbea526d6	-0.32256192
250	0xbe88d1d2	-0.2672258
251	0xbe26c8e8	-0.16287577
252	0x3e9396ba	0.28825933
253	0xbdfa7d7d	-0.12230966
254	0xbefd010a	-0.49414855
255	0xbd06f8d7	-0.032952156
