ch3/data/weights/W3.npy (npy, 4128 bytes, 1 tensors)

array (column-major) f4 [100, 10]
00000000: c0ed d7be df39 06bf f9cb 2e3f 1cde 1e3e
00000010: 3564 013f a5d7 48be 427a aebe 737a 19bf
00000020: 17d6 c0be 6b74 263f 0904 7b3f dd9c 03bf
00000030: b2ea f9bd d60b 1e3e 74e3 e83e 1f7c 06bf
00000040: f732 2a3f 61b3 b83d 0676 fb3e 6f88 153f
00000050: d342 31bf 7036 54bc 7f45 98bf 3306 d23e
00000060: 4a81 eb3e 8866 cabd 16c6 813f 76cf e13d
00000070: 1b4d 093d 25df 113f 854e 36be 1959 bebe
00000080: ae01 3fbf d697 b23e 614c 89be 4cc9 58be
00000090: 03a4 58bf 09a5 323e 725f bdbd b558 ce3e
000000a0: 229c 6a3e ccdc 24bf c953 db3d 0aae 71bf
000000b0: 9a40 60bb b9ea c13e 36ca 0dbe f1d7 b33c
000000c0: a64f ab3d df38 cf3e b069 fd3d dd7b d8be
000000d0: 8468 a43b c22e 293e 423c d63e a86d 34be
000000e0: c4e4 3fbe 543a 96bf 1d2d fabd 0131 f3bd
000000f0: a8cb eabe 6c0c 69be 0e47 96be 5f2c 843f
00000100: 3635 9bbe 5206 67bf 72a4 85bd 2a85 08bf
00000110: 5bab c93e 9169 023f 90d0 003f 0151 acbe
00000120: 351b 52bf 5c07 77bf 9763 40bd c798 b63e
00000130: 4b96 a3be a353 3ebf a4df 86be 0efb 293d
00000140: 039f 8c3f ad4c 8ebe e802 9b3d 809b b33e
00000150: f0ce 1a3f 3d1b 04be 042a 88be 665e 62be
00000160: 1b18 abbe da7c e7bd 209c 60bf b2c1 f53e
00000170: a4a7 72be 33bf be3e 40e8 303f 310d 5ebd
00000180: a68d d8be 136c e6be da64 0bbf 7040 893f
00000190: 807f 303f 6712 13be e114 03bf 0b0a 8b3d
000001a0: f9c7 8bbe d712 3fbe 621b 903f 4828 473f
000001b0: c0cf 023f 667b 9dbe 79fe 90be 8c80 55bd
000001c0: fad8 18bf 99e0 bcbe 60bc 99be b14c 983f
000001d0: afb9 f4be ebb5 3f3e 9e9a 66bf a44f 0dbf
000001e0: 6e23 49be 532c ad3e d460 733e 5c1a c93b
000001f0: 5018 ddbe 8745 34be 3463 59bf cd93 e7bd
00000200: 7523 9fbe 6a8c 0abf fa2b e93e 6f0e 073e
00000210: cdd3 663f 28d0 eabe 58e3 893f 2ff1 1abe
00000220: 0b64 853e 4ac9 943c 2d19 65be c5bb 82be
00000230: 46a7 953d 43da 88be fa70 89be 701f a03e
00000240: a99e 8dbe a48a 05be a4b7 503e 2b3a 14bf
00000250: 8bc8 383e 0d86 6cbe 7885 dd3b aaf8 363e
00000260: fbd4 e3bc fcdf 2f3e 30b4 313f 3199 353f
00000270: 8352 65be bcf3 713d 8538 86be 040f 1bbd
00000280: b865 8abe 6c5b 8a3e c416 173f a371 c0be
00000290: ae7e ccbe 7566 e53e c4f5 043f cbd2 063f
000002a0: 27a0 633e 44dd 8dbf c18f eabe 3b55 6e3e
000002b0: cdd7 8d3e ce85 263f f600 c1be 9342 54bd
000002c0: 418e 813e 1d2a 853e d2f4 90be f8bd cebe
000002d0: 027c 8cbf 09a3 653e dcb4 49be d8ad 79be
000002e0: 7ba6 9ebf 85d0 d6be 1627 823e ade1 24be
000002f0: 75ce d33e 4ad3 913e 8234 343f bd26 c7be
00000300: 1b7f 553e 727f e83d 1c43 3dbf e032 a73d
00000310: 8134 413d 2131 483f dea4 093f 28fa bebe
00000320: 3ceb b33d 1ee3 90bb b5d5 e1be 8ea4 723f
00000330: 2c3f 1ebd 5484 36bf 6e83 a1bd ce84 22bf
00000340: 51cd b6bc 7038 3bbe b6c1 df3e 3af5 b23d
00000350: 6ceb 2bbe 4f05 153f a092 2e3f f2ca c83e
00000360: 3bb6 87be dd74 763e 3c66 09bf ba9e 263f
00000370: c955 94be 2515 733d ac7b 903d 9123 113f
00000380: af5a 5bbf 9719 063f fff4 53bd 932b b93e
00000390: 0d13 293f b0f6 bd3c 0fc2 8d3e c992 c83d
000003a0: e8b8 98be bc84 2ebf 3d44 78be 30e6 d23e
000003b0: 6dcd 55be bbbe 023f e9ea c5bd 9e7b 51bf
000003c0: c44f fa3d 559a be3d b394 95be fba7 973d
000003d0: 2808 363e 2f67 063f bc37 433f f6ca 85be
000003e0: 7c9d 01be c7e9 4ebe 8c52 febe 0b59 b6be
000003f0: 6345 553f 9fa4 afbe 8ebe cb3e 0384 6dbe
-0.42173576 -0.52432054 0.6827999 0.15514416 0.5054353 -0.19613512 -0.3407765 -0.5995247
-0.37663338 0.6502139 0.9805303 -0.5141123 -0.12202968 0.15434203 0.45486033 -0.52533144
0.66484016 0.09018589 0.49113482 0.58411306 -0.6924259 -0.012952432 -1.1896209 0.41020355
0.45997077 -0.098828375 1.0138576 0.11025898 0.0335208 0.56981117 -0.1780339 -0.3717735
-0.7461194 0.34881467 -0.26816085 -0.21170539 -0.8462526 0.17445768 -0.092467204 0.40302053
0.22911122 -0.6439941 0.1070934 -0.9440619 -0.0034218193 0.37874392 -0.13846669 0.021953555
0.08364801 0.40473077 0.12373674 -0.42282 0.005017342 0.16521743 0.41842848 -0.17619956
-0.18739611 -1.173655 -0.12215636 -0.11874581 -0.45858502 -0.22758645 -0.29351085 1.0326041
-0.30314034 -0.9024402 -0.06525506 -0.5332819 0.39388546 0.5094233 0.5031824 -0.3365555
-0.82072765 -0.96495605 -0.046969976 0.35663435 -0.31950602 -0.7434637 -0.263425 0.04149919
1.0986027 -0.27792874 0.07568914 0.35079575 0.6047201 -0.12901016 -0.26594555 -0.22106323
-0.3341683 -0.113031104 -0.8773823 0.4799934 -0.23696762 0.37255248 0.69104385 -0.0542118
-0.4229557 -0.4500433 -0.5445076 1.072279 0.6894455 -0.14362489 -0.51203734 0.06789025
-0.27301005 -0.1865953 1.1258357 0.7779584 0.5109825 -0.30758208 -0.28319147 -0.052124545
-0.5970608 -0.36890104 -0.3002653 1.1898404 -0.47797915 0.1872174 -0.9007968 -0.55199647
-0.19642422 0.3382288 0.23767406 0.0061371755 -0.4318261 -0.17604648 -0.84916997 -0.11307488
-0.3108174 -0.54120505 0.45541364 0.131891 0.9016693 -0.45861936 1.0772505 -0.15131067
0.2605289 0.018162388 -0.22372885 -0.25533882 0.073072955 -0.2672902 -0.26844007 0.31273985
-0.2766011 -0.13041168 0.20382553 -0.5790126 0.18045251 -0.23098011 0.0067602955 0.17868295
-0.027811518 0.17175287 0.6941557 0.70936877 -0.22394757 0.059070334 -0.26214996 -0.037856117
-0.2703073 0.27022874 0.5901911 -0.37586698 -0.399404 0.4480473 0.5193751 0.52665395
0.22229062 -1.108315 -0.458128 0.232747 0.27703705 0.6504792 -0.37696046 -0.051821303
0.25303844 0.26008692 -0.28311783 -0.4037931 -1.0975344 0.22425474 -0.19697899 -0.24382722
-1.2394556 -0.41955963 0.25420445 -0.16101713 0.41368452 0.28481513 0.7039262 -0.38896742
0.20849268 0.11352433 -0.73930526 0.081640005 0.047169212 0.78199965 0.5376719 -0.3730023
0.08785102 -0.0044216057 -0.44108358 0.9478234 -0.038634464 -0.71295667 -0.07886396 -0.63483894
-0.0223147 -0.18283248 0.43702477 0.087381795 -0.16789025 0.58211225 0.6819248 0.39217335
-0.26506218 0.24068017 -0.5367162 0.6508595 -0.289717 0.059346337 0.070548385 0.56694895
-0.8568525 0.52382797 -0.05174732 0.36166057 0.66044694 0.023188919 0.27687117 0.09793622
-0.29828572 -0.68171287 -0.24244781 0.41191244 -0.20879145 0.5107228 -0.09663946 -0.8182925
0.12222245 0.0930678 -0.2921501 0.074050866 0.17776549 0.52501196 0.7625692 -0.2613141
-0.12657732 -0.20206366 -0.49672353 -0.3561481 0.83309 -0.34305283 0.3979382 -0.2319489
